Model: "sequential_3"
_________________________________________________________________
Layer (type)                 Output Shape              Param #
=================================================================
sequential (Sequential)      (32, 256, 256, 3)         0
_________________________________________________________________
sequential_1 (Sequential)    (None, 256, 256, 3)       0
_________________________________________________________________
conv2d_6 (Conv2D)            (32, 254, 254, 32)        896
_________________________________________________________________
max_pooling2d_6 (MaxPooling2 (32, 127, 127, 32)        0
_________________________________________________________________
conv2d_7 (Conv2D)            (32, 125, 125, 64)        18496
_________________________________________________________________
max_pooling2d_7 (MaxPooling2 (32, 62, 62, 64)          0
_________________________________________________________________
conv2d_8 (Conv2D)            (32, 60, 60, 64)          36928
_________________________________________________________________
max_pooling2d_8 (MaxPooling2 (32, 30, 30, 64)          0
_________________________________________________________________
conv2d_9 (Conv2D)            (32, 28, 28, 64)          36928
_________________________________________________________________
max_pooling2d_9 (MaxPooling2 (32, 14, 14, 64)          0
_________________________________________________________________
conv2d_10 (Conv2D)           (32, 12, 12, 64)          36928
_________________________________________________________________
max_pooling2d_10 (MaxPooling (32, 6, 6, 64)            0
_________________________________________________________________
conv2d_11 (Conv2D)           (32, 4, 4, 64)            36928
_________________________________________________________________
max_pooling2d_11 (MaxPooling (32, 2, 2, 64)            0
_________________________________________________________________
flatten_1 (Flatten)          (32, 256)                 0
_________________________________________________________________
dense_2 (Dense)              (32, 64)                  16448
_________________________________________________________________
dense_3 (Dense)              (32, 3)                   195
=================================================================
Total params: 183,747
Trainable params: 183,747
Non-trainable params: 0
_________________________________________________________________
WARNING:tensorflow:Layers in a Sequential model should only have a single input tensor, but we receive a <class 'list'> input: [<tf.Tensor 'args_0:0' shape=(1, 256, 256, 3) dtype=float32>]
Consider rewriting this model with the Functional API.
…
